…
      "output_type": "execute_result"
     }
@@ -958,29 +958,29 @@
   },
   {
    "cell_type": "code",
-   "execution_count": 149,
+   "execution_count": 171,
    "metadata": {},
    "outputs": [
     {
      "name": "stdout",
      "output_type": "stream",
      "text": [
-      "Model: \"sequential_7\"\n",
+      "Model: \"sequential_8\"\n",
       "_________________________________________________________________\n",
       "Layer (type)                 Output Shape              Param #   \n",
       "=================================================================\n",
-      "dense_56 (Dense)             (None, 16)                12560     \n",
+      "dense_61 (Dense)             (None, 512)               401920    \n",
       "_________________________________________________________________\n",
-      "dense_57 (Dense)             (None, 16)                272       \n",
+      "dense_62 (Dense)             (None, 512)               262656    \n",
       "_________________________________________________________________\n",
-      "dense_58 (Dense)             (None, 16)                272       \n",
+      "dense_63 (Dense)             (None, 512)               262656    \n",
       "_________________________________________________________________\n",
-      "dense_59 (Dense)             (None, 16)                272       \n",
+      "dense_64 (Dense)             (None, 512)               262656    \n",
       "_________________________________________________________________\n",
-      "dense_60 (Dense)             (None, 10)                170       \n",
+      "dense_65 (Dense)             (None, 10)                5130      \n",
       "=================================================================\n",
-      "Total params: 13,546\n",
-      "Trainable params: 13,546\n",
+      "Total params: 1,195,018\n",
+      "Trainable params: 1,195,018\n",
       "Non-trainable params: 0\n",
       "_________________________________________________________________\n"
      ]
@@ -990,13 +990,15 @@
     "mnist_model = Sequential()\n",
…
